models/best_model.pth (torch, 393909 bytes, 20 tensors)

features.0.weight f4 [32, 10, 3, 3]
0	0xbd15c640	-0.03656602
1	0x3c1ceb5f	0.009577601
2	0x3b843074	0.0040340964
3	0x3d14a01e	0.036285512
4	0xbd5f6126	-0.054536007
5	0xbcf2fa6d	-0.029660428
6	0x3d19931d	0.037493814
7	0xbd80a71b	-0.06281873
8	0x3d2f18bc	0.042748198
9	0xbd8837ad	-0.06651244
10	0x3d18d04e	0.03730803
11	0xbd8e2d89	-0.06942279
12	0x3da9136a	0.08255656
13	0xbcd9c962	-0.026585285
14	0xbdc91650	-0.09818709
15	0xbd625ad5	-0.055262405
16	0x3dcfd0f2	0.10147275
17	0x3db12f47	0.086515956
18	0x3daff07e	0.08590792
19	0x3d667ff9	0.056274388
20	0xbdcbbe46	-0.09948401
21	0xbd992f2c	-0.074797004
22	0x3c84d435	0.01621447
23	0xbd3136d3	-0.043265175
24	0x3ab5dd4e	0.0013875158
25	0x3d78d071	0.06074566
26	0xbd81def8	-0.06341356
27	0xbcc42ace	-0.023946192
28	0x3da76a64	0.08174589
29	0xbdb21b85	-0.08696655
30	0x3d95f978	0.07322973
31	0x3c47a75a	0.012185896
32	0x3d4ad264	0.04951705
33	0x3d706f31	0.05869979
34	0xbdb6f881	-0.08934117
35	0xbd98d862	-0.07463147
36	0xbdad37da	-0.084579185
37	0x3cff9a3b	0.031201473
38	0xbd8158dd	-0.063157775
39	0xbb234473	-0.0024912625
40	0xbd0c6016	-0.034271322
41	0x3d47e691	0.04880387
42	0xbd4dfd34	-0.0502903
43	0xbd0b573e	-0.034018748
44	0xbd082575	-0.033238847
45	0xbdcb4670	-0.09925544
46	0xbab5c60b	-0.0013868226
47	0x3d717a58	0.058954567
48	0xbd08af5a	-0.033370353
49	0xbd73b29f	-0.05949652
50	0xbdc58791	-0.09644998
51	0x3d445379	0.04793117
52	0x3d8dedce	0.06930123
53	0x3da7e5fa	0.081981614
54	0xbc50b7b9	-0.012739115
55	0x3d0fd480	0.035114765
56	0xbc520b95	-0.012820144
57	0x3dc062dd	0.09393857
58	0x3d158ba1	0.036510114
59	0xbdb42304	-0.08795741
60	0xbd8bf13c	-0.06833121
61	0xbdc67401	-0.09690095
62	0xbcdd90a5	-0.027046511
63	0x3c600559	0.01367315
64	0xbc9a69cf	-0.018849282
65	0xbd0e86f4	-0.03479667
66	0x3d72430f	0.059145983
67	0xbd4af947	-0.049554136
68	0x3dc6ff40	0.09716654
69	0x3ab33839	0.0013673372
70	0xbdbf7bb6	-0.09349768
71	0xbdd51ade	-0.10405515
72	0xbd93fc0a	-0.07225807
73	0xbd899d07	-0.06719404
74	0xbc76163a	-0.015019948
75	0xbd6a316a	-0.05717603
76	0xbda6e381	-0.08148862
77	0x3d3bb8e0	0.045830607
78	0xbcf35e32	-0.029708002
79	0xbc37921b	-0.011204268
80	0xbd107636	-0.035268985
81	0xbd3d0ea3	-0.046156537
82	0x3dd0ff6b	0.10204967
83	0xbdc1b03e	-0.09457444
84	0x3dd1565c	0.1022155
85	0x3c8b9ead	0.017043436
86	0xbdd7b747	-0.10533004
87	0xbd03a432	-0.03213901
88	0xbcb307f2	-0.021854375
89	0x3dbf73ad	0.09348235
90	0x3d4b7127	0.049668457
91	0x3d912a50	0.070881486
92	0xbcb68d1b	-0.022284081
93	0xbd993154	-0.07480112
94	0x3da5d3cb	0.08097037
95	0xbdcea652	-0.10090317
96	0x3cb9ebcc	0.022695445
97	0xbd4ba8da	-0.049721576
98	0x3d0414ad	0.03224628
99	0xbdc1d0af	-0.09463631
100	0xbda8091f	-0.08204865
101	0x3db1c3df	0.086799376
102	0xbd2cc283	-0.04217769
103	0xbceca333	-0.028886413
104	0xbc8399a1	-0.016064467
105	0x3dd1fdd9	0.10253496
106	0x3bcbc409	0.0062184376
107	0x3dbf4250	0.0933882
108	0xbd8a4b5b	-0.06752654
109	0xbd560551	-0.052251164
110	0x3cb679b5	0.022274831
111	0x3cfb8f44	0.030707963
112	0xbdcdb705	-0.10044674
113	0x3d6caa44	0.057779565
114	0xbd41c080	-0.047302723
115	0x3b4b1db5	0.0030993049
116	0xbd901aa5	-0.07036332
117	0x3d102664	0.035192862
118	0x3d609da2	0.05483783
119	0x3dc99bed	0.098441936
120	0x3b05fbfc	0.0020444384
121	0xbbb3f1fa	-0.0054914923
122	0x3d8f4f1e	0.06997512
123	0x3dac36b7	0.084088735
124	0x3db5b01d	0.088714816
125	0x3bf354d1	0.0074258824
126	0xbd4bcad1	-0.049753968
127	0x3d972181	0.07379437
128	0x3d4a58b3	0.049400996
129	0x3bfd71bf	0.007734507
130	0x3d91ace5	0.07113055
131	0xbbafd333	-0.005365753
132	0x3d9e1aaa	0.077199295
133	0x3dc8ef14	0.098112255
134	0x3d21e427	0.039524224
135	0x3cc61585	0.024180183
136	0x3dd384f2	0.10328092
137	0xbd341454	-0.0439647
138	0xbdd15005	-0.10220341
139	0x3db1c3ff	0.086799614
140	0x3d7e31cd	0.062059212
141	0xbce2112b	-0.027596077
142	0xbc513f0c	-0.012771379
143	0x3d6bc54b	0.0575612
144	0x3c163e5d	0.009170142
145	0xbdc2add9	-0.09505815
146	0x3d77c939	0.060494635
147	0x3da60d52	0.081080094
148	0xbd9e5d75	-0.07732669
149	0xbd3e12d8	-0.04640469
150	0xbdd4db24	-0.1039336
151	0xbdcaf5a3	-0.09910133
152	0x3dd05be0	0.10173774
153	0xbbc6fa14	-0.006072292
154	0x3db1ad40	0.08675623
155	0xbd785574	-0.06062837
156	0xbd83158f	-0.06400596
157	0xbd69d427	-0.05708709
158	0xbd61e714	-0.055152014
159	0xbd1283aa	-0.035770096
160	0x3cd1e637	0.02562247
161	0xbd87fe19	-0.06640262
162	0x3d475fa4	0.048675194
163	0xbce280e2	-0.027649347
164	0xbc6f5829	-0.014608421
165	0x3d09de1c	0.033659086
166	0xbdca6f16	-0.09884469
167	0x3d5e98d5	0.05434497
168	0x3dbe3f0e	0.092893705
169	0x3bc55c4f	0.006022967
170	0x3c341ff8	0.01099395
171	0xbd8fb980	-0.07017803
172	0x3dc25897	0.094895534
173	0xbce4a003	-0.02790833
174	0x3d39d7ee	0.045371942
175	0xbd671718	-0.05641851
176	0xbd30a931	-0.043130103
177	0xbdb09c73	-0.0862359
178	0xbc3c1d72	-0.01148163
179	0xbdcf9200	-0.10135269
180	0xbb914534	-0.0044332985
181	0x3dadbd3a	0.08483358
182	0xbd5c97c4	-0.053855672
183	0xbc4e76c7	-0.012601561
184	0x3d0a08de	0.033699863
185	0x3d097548	0.033559114
186	0x3d80c32e	0.062872276
187	0x3d50daef	0.05099004
188	0xbdbff61c	-0.093731135
189	0xbd9b755a	-0.075907424
190	0xbcb530f5	-0.022118071
191	0x3d027a9b	0.031855207
192	0x3ac1d949	0.0014789487
193	0xbd70de27	-0.05880561
194	0xbd091f41	-0.03347707
195	0xbd50a16b	-0.05093519
196	0x3d896e7a	0.06710525
197	0xbdd2ac00	-0.10286713
198	0xbd986d4f	-0.07442724
199	0x3dbc8c8a	0.09206493
200	0xbd89cfb5	-0.0672907
201	0x3c61ec6a	0.013789276
202	0x3da6065f	0.08106684
203	0xbd9d50bc	-0.076814145
204	0x3d914a05	0.07094196
205	0xbd3f2347	-0.046664502
206	0xbca99072	-0.02069876
207	0xbdc3de5c	-0.09563896
208	0x3d07ca71	0.033152048
209	0xbd96dc99	-0.073662944
210	0x3dac86fb	0.08424183
211	0xbd8778a5	-0.06614808
212	0x3dc600a3	0.0966809
213	0x3d13e2b0	0.036104858
214	0x3dcf84a9	0.10132725
215	0xbc976bc1	-0.018483998
216	0x3d88e804	0.066848785
217	0xbd17483e	-0.03693413
218	0x3dd1086e	0.10206686
219	0x3da01057	0.078156166
220	0xbcf83ae9	-0.030301528
221	0xbca2c30c	-0.019868396
222	0xbd55b393	-0.05217321
223	0xbd11c896	-0.035591684
224	0x3d02e2a2	0.031954415
225	0xbdd28680	-0.1027956
226	0x3d83debf	0.0643897
227	0x3d087c77	0.033321824
228	0xbc0ed7ab	-0.008718411
229	0x3c91f4d6	0.017816942
230	0xbd39b758	-0.045340866
231	0xbce0e026	-0.027450632
232	0x3d8c2daa	0.06844647
233	0x3ce998a8	0.028515175
234	0x3dbd9b68	0.09258157
235	0xbd8cf3df	-0.06882452
236	0x3c558d9d	0.0130342515
237	0x3c610d2a	0.013736049
238	0x3b8fc2d6	0.00438724
239	0xbd353f43	-0.044249784
240	0x3b031f0b	0.0020007517
241	0x3d617742	0.055045374
242	0xbd036a27	-0.032083657
243	0xbd63bfdb	-0.05560289
244	0x3d3c6f37	0.0460045
245	0x3abd8828	0.0014460133
246	0x3d136413	0.03598411
247	0xbdc0deac	-0.09417471
248	0xbd0755b6	-0.033040725
249	0x3d866976	0.06563084
250	0xbc482e52	-0.012218075
251	0x3db5f560	0.08884692
252	0xbda46bc6	-0.08028369
253	0xbda2801b	-0.079345904
254	0xbd511c95	-0.05105265
255	0x3ca0b259	0.019616293

features.0.bias f4 [32]
0	0x3dc6d1a3	0.09707954
1	0xbd6aab61	-0.057292346
2	0x3d93672a	0.07197411
3	0xbc73f935	-0.014890959
4	0x3db8b10a	0.090181425
5	0x3da4f7c0	0.08055067
6	0xbd103671	-0.03520817
7	0x3d6e3f75	0.058165986
8	0x3d0e38c9	0.034722123
9	0xbdadf1c6	-0.0849338
10	0xbd0519fe	-0.03249549
11	0x3dc94267	0.09827118
12	0x3c7d284d	0.015451503
13	0xbd94dc4c	-0.07268581
14	0x3cd28d43	0.025702124
15	0xbd38b1a4	-0.045091286
16	0x3c8703c5	0.01648129
17	0xbd8ac8e6	-0.067765996
18	0x3d8a0370	0.06738937
19	0xbbe1b1b6	-0.00688764
20	0xbd944257	-0.07239216
21	0x3d3cb357	0.04606947
22	0x3d2dc69e	0.042425744
23	0x3dcfef99	0.101531215
24	0x3dd47a25	0.1037486
25	0xbd7a278d	-0.061072875
26	0x3d64c455	0.0558513
27	0x3dbc8e80	0.09206867
28	0xbdabdcc8	-0.0839172
29	0xbd835a84	-0.06413749
30	0xbd7a90fe	-0.06117343
31	0x3c1ecbbe	0.009692131

features.1.weight f4 [32]
0	0x3f7fd741	0.99937826
1	0x3f8011c9	1.0005428
2	0x3f8010ca	1.0005124
3	0x3f7fdd4d	0.99947053
4	0x3f7fee91	0.999734
5	0x3f7fe4ef	0.999587
6	0x3f80130a	1.000581
7	0x3f800214	1.0000634
8	0x3f8002a4	1.0000806
9	0x3f7fddfa	0.99948084
10	0x3f7fd948	0.9994092
11	0x3f800015	1.0000025
12	0x3f8000b6	1.0000217
13	0x3f7fdc7f	0.99945825
14	0x3f7ffb89	0.9999319
15	0x3f800bdb	1.0003618
16	0x3f8002e7	1.0000886
17	0x3f801141	1.0005265
18	0x3f80109d	1.000507
19	0x3f800c00	1.0003662
20	0x3f7fddaa	0.9994761
21	0x3f7ff27a	0.99979365
22	0x3f7fe1da	0.99954
23	0x3f800449	1.0001308
24	0x3f80154a	1.0006497
25	0x3f7fe7b3	0.9996292
26	0x3f7ff678	0.99985456
27	0x3f8001cf	1.0000552
28	0x3f8012c6	1.0005729
29	0x3f80102b	1.0004934
30	0x3f800f06	1.0004585
31	0x3f7fffa3	0.99999446

features.1.bias f4 [32]
0	0xba2a9acc	-0.0006508052
1	0x3a11e9f7	0.00055661745
2	0x3a059887	0.00050962757
3	0xba03cb6b	-0.0005027565
4	0x39f55eca	0.00046800665
5	0xba05a371	-0.0005097902
6	0x3a1edff6	0.00060605945
7	0x37a2b5b0	1.939651e-05
8	0xb8499ab2	-4.8066206e-05
9	0xba19e7d8	-0.0005871034
10	0xba12ffe6	-0.000560759
11	0xb83b3bab	-4.4639844e-05
12	0x35f7174e	1.8409717e-06
13	0xba295b05	-0.00064604013
14	0xb75b1e2d	-1.3060443e-05
15	0x3997b83d	0.00028938233
16	0x395b5654	0.00020917627
17	0x3a0cc0d3	0.0005369309
18	0xb902a887	-0.00012460547
19	0x39d31f10	0.000402682
20	0x36614d58	3.3572633e-06
21	0xb980b962	-0.00024552183
22	0xb9c0467d	-0.00036673612
23	0x397468ff	0.00023308767
24	0xb8a701c5	-7.96351e-05
25	0xba1ceea7	-0.00059864897
26	0xb96d62f6	-0.00022638947
27	0x39c7ee85	0.0003813395
28	0x3a039d0d	0.0005020656
29	0x39e1dc8d	0.00043079667
30	0x3a07a062	0.000517374
31	0xb97e2f46	-0.00024240938

features.1.running_mean f4 [32]
0	0x3c049c2e	0.008093877
1	0xbcdeb331	-0.027185054
2	0x3d552ede	0.05204665
3	0xbd0a82bb	-0.03381608
4	0x3d5a104d	0.053238202
5	0x3d7b650f	0.061375674
6	0xbd66f508	-0.056386024
7	0xbc836702	-0.016040329
8	0xbac4259d	-0.0014964823
9	0xbdb043b8	-0.08606666
10	0x3bf69c38	0.007525947
11	0x3daf4561	0.08558155
12	0x3d0f4c8f	0.03498512
13	0xbd714622	-0.058904774
14	0xbcebcd4d	-0.028784418
15	0xbd99179f	-0.074752085
16	0x3c9572d3	0.018243229
17	0xbdba26b6	-0.09089415
18	0x3d1ca88a	0.03824667
19	0xbd4bf8d2	-0.04979784
20	0xbd4c7c07	-0.04992297
21	0x3b702db3	0.0036648333
22	0x3da0782c	0.07835421
23	0x3ca5ae11	0.020224603
24	0x3d53cb4c	0.05170755
25	0xbb41f08c	-0.002959284
26	0x3d6d2425	0.0578958
27	0x3d5f4ea1	0.054518346
28	0xbd1bfacb	-0.03808097
29	0xbbb6b7ef	-0.005576126
30	0xbd9ec656	-0.07752673
31	0x3c76247b	0.015023346

features.1.running_var f4 [32]
0	0x3ecafe14	0.3964697
1	0x3ec7040b	0.38870272
2	0x3ec6b63d	0.38810912
3	0x3ec79ef5	0.38988462
4	0x3ec69056	0.38781995
5	0x3ec72e9e	0.38902754
6	0x3ec8aace	0.39192814
7	0x3ecbfe0d	0.39842263
8	0x3ec7e1bc	0.3903941
9	0x3ec8a3d0	0.3918748
10	0x3ec7f91f	0.39057252
11	0x3ec7ace1	0.38999084
12	0x3ec81762	0.3908034
13	0x3ec71a52	0.38887268
14	0x3ec9d653	0.3942133
15	0x3eca8b75	0.39559522
16	0x3ec6c00d	0.38818398
17	0x3ecad575	0.3961598
18	0x3ec6ae22	0.38804728
19	0x3eca9553	0.3956705
20	0x3ec6a75f	0.3879957
21	0x3ec7f48c	0.39053762
22	0x3ecae963	0.39631185
23	0x3ec9f3e6	0.39443892
24	0x3ec71832	0.38885647
25	0x3ec8b3b2	0.39199597
26	0x3ec7d331	0.39028314
27	0x3ec69be9	0.38790825
28	0x3ec73350	0.38906336
29	0x3ec89c4c	0.39181745
30	0x3ec93d1a	0.3930443
31	0x3ec70fa0	0.38879108

features.4.weight f4 [64, 32, 3, 3]
0	0x3c3cd757	0.01152595
1	0x3d3c55ec	0.04598038
2	0x3d17780c	0.03697972
3	0x3d265638	0.04060957
4	0xbba340d2	-0.0049820924
5	0x3b186352	0.002325256
6	0xbc72423c	-0.014786299
7	0xbcbeaf42	-0.023276929
8	0x3c7803dc	0.015137639
9	0xbca05a50	-0.019574314
10	0x3d632117	0.05545148
11	0x3cb5bda3	0.022185152
12	0x3d231763	0.039817225
13	0x3cbc8b02	0.023015503
14	0x3cf33699	0.02968912
15	0x3cbe613e	0.023239728
16	0x3d2d1727	0.042258408
17	0x3c7979d1	0.015226797
18	0x3b262d19	0.002535647
19	0x3d67ef5c	0.056624755
20	0x3d3260ef	0.043549474
21	0xbd5dd4b6	-0.054157935
22	0xbd18f911	-0.037346903
23	0x3d4014b2	0.046894737
24	0x3cfb1b77	0.030652745
25	0x3d52d2e7	0.051470663
26	0x3ca4bf71	0.020110818
27	0xbcef583d	-0.02921688
28	0x3d6af8b4	0.057366088
29	0xbd0fd592	-0.035115786
30	0xbc472e13	-0.012156981
31	0x3b9e6dcd	0.0048348666
32	0xbc6dd160	-0.014515251
33	0xbc201ac3	-0.0097720055
34	0xbc811cdd	-0.015760833
35	0x3d2e779c	0.042594537
36	0x3d53bdce	0.051694684
37	0x3ccc9080	0.024971247
38	0xbd33870c	-0.043829963
39	0x3c3e8346	0.011627978
40	0xbd2d24db	-0.042271476
41	0xbcf7ed1d	-0.030264432
42	0xbd01b537	-0.03166696
43	0x3b1d3c47	0.0023992227
44	0xbd2d7ac3	-0.042353403
45	0xbd14ae74	-0.036299184
46	0xbc9840a0	-0.018585503
47	0x3d1f2f11	0.038863245
48	0xbd1373e0	-0.03599918
49	0x3d508087	0.050903823
50	0xbcf141c5	-0.029450307
51	0xbd4faa92	-0.050699778
52	0x3b2a6587	0.0026000456
53	0xbca2d379	-0.019876229
54	0x3c7d4271	0.015457735
55	0x3cc81a2f	0.024426548
56	0x3d3403ec	0.043949053
57	0xbd320490	-0.043461382
58	0x3cf95ddd	0.030440265
59	0xbd609907	-0.05483344
60	0xbc8fb518	-0.017542407
61	0xbd164568	-0.036687285
62	0x3cccb967	0.02499075
63	0x3d6c3eb6	0.057676993
64	0x3d46ac2a	0.048504032
65	0x3d6f7514	0.058461264
66	0x3d341977	0.043969598
67	0x3c8ac159	0.016937898
68	0xbd0f24cb	-0.034947198
69	0xbd5d7a93	-0.054071974
70	0xbd4764eb	-0.048680227
71	0x3cb47f9c	0.022033505
72	0x3ce5646b	0.028001985
73	0x3d2aeb54	0.041728333
74	0x3d3b4332	0.04571838
75	0x3d017783	0.031608116
76	0xbbe1014b	-0.006866609
77	0x3c671a9b	0.014105464
78	0x3d1460af	0.036225017
79	0xbc7067ea	-0.014673213
80	0x3b1a9368	0.0023586396
81	0xbd37c3ce	-0.04486447
82	0x3d5e83fd	0.054325093
83	0xbbce9c8c	-0.006305283
84	0x3d3a1e13	0.045438837
85	0x3c949c30	0.018140882
86	0x3ce9a0b0	0.028519005
87	0xbd47e6d0	-0.048804104
88	0x3c91c775	0.017795304
89	0x3ba42d5d	0.0050102905
90	0xbcb2aca8	-0.021810845
91	0xbca617eb	-0.020275077
92	0x3cb5a6d1	0.02217427
93	0xbc0b1cf8	-0.008490793
94	0xbb586acb	-0.0033022638
95	0x3d6f6407	0.058445003
96	0x3d2cd209	0.042192493
97	0x3d198645	0.037481565
98	0x3b061ab4	0.0020462694
99	0xbd1eca92	-0.038767405
100	0x3b5759bd	0.0032859885
101	0x3d6c73fb	0.057727795
102	0x3cb62906	0.022236358
103	0xbd148c0f	-0.036266383
104	0xbd656a91	-0.056009833
105	0x3ba5c74d	0.005059159
106	0xbd6dc80b	-0.058052104
107	0x3d0f95d9	0.035055015
108	0xbbc992ad	-0.0061515183
109	0x3d0fe4cb	0.035130303
110	0x3d5e9350	0.054339707
111	0xbc94ac59	-0.018148588
112	0x3c4c2d9a	0.012462044
113	0x3d049f78	0.032378644
114	0xbca7e403	-0.020494467
115	0xbce0f96d	-0.027462685
116	0xbd2dfdc2	-0.04247833
117	0x3c756d05	0.014979606
118	0x3ca1169f	0.019664107
119	0xbcf81f71	-0.03028843
120	0x3d421b1d	0.04738914
121	0x3cba6436	0.022752862
122	0x3befb070	0.007314734
123	0xbd1e2e7d	-0.038618553
124	0x3d019aa6	0.031641625
125	0xbcbb97c9	-0.022899525
126	0x3d651e94	0.055937365
127	0x3d3cf0ea	0.04612819
128	0x3c9357cf	0.017986206
129	0xbd559f20	-0.052153707
130	0xbcdd4886	-0.027012121
131	0x3d20af8b	0.03922991
132	0x3d63d2ee	0.05562108
133	0x3d22cdca	0.039747037
134	0x3c9e02ec	0.019288503
135	0xbc807f4c	-0.0156857
136	0xbd33eb94	-0.043925837
137	0x3c3b8c6a	0.011447052
138	0xbd418a79	-0.0472512
139	0xbd32c5f3	-0.04364581
140	0x3d1b1655	0.037863094
141	0x3d6a0192	0.057130404
142	0xbd0b2cb0	-0.033978164
143	0x3cee961d	0.029124314
144	0x3d184642	0.037176378
145	0xbc80da9f	-0.015729247
146	0x3cb3c756	0.021945637
147	0xbc7c69f4	-0.015406121
148	0x3d1e73eb	0.038684767
149	0x3d2a7311	0.041613642
150	0xbcd77401	-0.026300432
151	0x3d55df04	0.052214637
152	0xbd2242c9	-0.039614473
153	0x3d1cc05c	0.038269386
154	0xbb32ba2e	-0.0027271616
155	0xbc426a2a	-0.011866132
156	0xbd3c87c4	-0.046027914
157	0x3a95038f	0.0011368858
158	0xbd1ff59e	-0.0390526
159	0x3cbc9271	0.023019047
160	0xbcf565ef	-0.029955832
161	0x3cd71b1b	0.026258042
162	0x3d45eb87	0.04832032
163	0x3d5367f6	0.051612817
164	0x3bdf34a5	0.0068116956
165	0xbd4b394c	-0.04961519
166	0x3d00cb2c	0.03144376
167	0xbd01563c	-0.03157638
168	0x3c58a526	0.013222968
169	0x3b6aa519	0.0035803972
170	0xbd392c57	-0.0452083
171	0x3d45d7e2	0.048301585
172	0xbce3e421	-0.027818741
173	0xbd010690	-0.0315004
174	0x3c5d3cda	0.013503278
175	0x3c60d18d	0.013721836
176	0x3d096258	0.033541054
177	0xbd60c61d	-0.054876436
178	0x3cf598cd	0.029980088
179	0x3d2f8bdb	0.042857986
180	0x3d29cb87	0.041453864
181	0x3c774824	0.015092883
182	0x3d08a555	0.033360798
183	0x3cbf1b7c	0.023328535
184	0xbab2e0c1	-0.0013647304
185	0xbd33bf95	-0.04388388
186	0x3d5cc7b3	0.053901386
187	0xbd48c82d	-0.049019028
188	0x3be70095	0.00704963
189	0xbc658894	-0.014009614
190	0xbd1f19ec	-0.03884308
191	0xbc252831	-0.010080383
192	0xbd208a47	-0.03919437
193	0x3d195eb6	0.03744384
194	0x3d0739ee	0.03301423
195	0x3c95e8ee	0.018299546
196	0x3c75f999	0.015013122
197	0x3cbeb73a	0.023280729
198	0x3d0317ce	0.032005124
199	0x3cf694bb	0.030100217
200	0xbcc77a79	-0.024350392
201	0x3c9f1b71	0.019422265
202	0xbd3369f9	-0.043802235
203	0xbbd7a2fb	-0.006580708
204	0x3bb2a1e8	0.0054514296
205	0xbc5b73cb	-0.013394306
206	0xbcc0800e	-0.023498561
207	0xbd0a4b71	-0.033763353
208	0xbcfc92e5	-0.030831764
209	0xbc0d8410	-0.008637443
210	0xbacf85a1	-0.0015832671
211	0xbd2dca31	-0.042429153
212	0xbce3bc58	-0.02779977
213	0x3d5a9f69	0.05337468
214	0x3af3cf17	0.0018601146
215	0xbccf42f9	-0.02530049
216	0x3be0d273	0.006861025
217	0x3ce9432b	0.028474411
218	0xbca63dad	-0.020293081
219	0xbced1a62	-0.028943244
220	0xbd00811d	-0.031373132
221	0x3d236725	0.03989329
222	0xbaf5c12f	-0.001874959
223	0x3c5e4d55	0.013568242
224	0x3c9f8bac	0.01947578
225	0x3d41e04f	0.047333058
226	0x3d0fed0d	0.03513818
227	0xbd1a0b15	-0.037608225
228	0xbd5cb986	-0.053887866
229	0x3c301f1b	0.010749604
230	0xbc586d94	-0.013209719
231	0x3d5a6bb7	0.05332538
232	0xbd1a7145	-0.03770568
233	0x3c094390	0.008377925
234	0xbd2b976b	-0.04189245
235	0xbce0742d	-0.027399147
236	0xbd6efcdf	-0.058346625
237	0x3d3c6049	0.045990262
238	0x3bc5fed0	0.006042339
239	0x3d40a26a	0.04702989
240	0xbd6d80fb	-0.057984333
241	0xbbf4afbb	-0.0074672378
242	0xbd29a5fe	-0.041418068
243	0x3d1abe44	0.037779108
244	0xbb2cc219	-0.0026360808
245	0x3cb9cbf2	0.022680257
246	0xbce345eb	-0.0277433
247	0x3c99a057	0.018753214
248	0x3c99eae0	0.018788755
249	0x3cfd8d7e	0.030951258
250	0xbcdc228d	-0.026871944
251	0xbd057775	-0.032584626
252	0xbc303235	-0.010754158
253	0x3d47610b	0.04867653
254	0xbd3df41a	-0.04637537
255	0xbd54ad0d	-0.051922847

features.4.bias f4 [64]
0	0xbcc6018b	-0.024170658
1	0xbce8bc55	-0.028410116
2	0x3ccaf11e	0.024773177
3	0x3d45d5d3	0.04829962
4	0xbd58bebc	-0.052916273
5	0xbd28d7d2	-0.041221447
6	0x3d5784d8	0.052616924
7	0x3cc3809d	0.023865039
8	0x3d232b41	0.039836172
9	0x3d1aa1dd	0.03775202
10	0xbd04f0c4	-0.032456174
11	0xbb8d6993	-0.004315564
12	0x3b5d5365	0.003377163
13	0xba2568df	-0.00063098775
14	0xbd1489a1	-0.036264066
15	0xbd5398ee	-0.051659517
16	0xbd05ac73	-0.032635164
17	0xbd0dd4ba	-0.0346267
18	0xbd4dc0ed	-0.050232816
19	0xbd0de357	-0.034640636
20	0xbc0c0524	-0.0085461475
21	0xbd364e24	-0.044508114
22	0xbcdf9972	-0.027294848
23	0xbd2ce472	-0.04221005
24	0x3d0fe687	0.035131957
25	0xbaab4405	-0.0013066536
26	0x3d709c2f	0.0587427
27	0x3d42db2e	0.047572307
28	0xbd402fe2	-0.046920665
29	0xbc9a46bf	-0.018832562
30	0xbcf33420	-0.029687941
31	0x3d650355	0.05591138
32	0xbbfe29fe	-0.0077564707
33	0x3d056204	0.032564178
34	0xbd006f63	-0.031356227
35	0x3aba5125	0.0014214857
36	0xbb5f81ac	-0.003410439
37	0x3cc67026	0.024223398
38	0xbc2350e0	-0.009968013
39	0xbd6aa8df	-0.057289954
40	0x3d0b61a5	0.034028668
41	0x3ce206b8	0.027591094
42	0x3d27ac3d	0.040935744
43	0x3d25f990	0.040521204
44	0x3cdb5a7d	0.026776547
45	0x3bb150c7	0.0054112407
46	0x3b929331	0.004473113
47	0xbd2a2e95	-0.04154833
48	0xbd67566a	-0.056478895
49	0xbcb18760	-0.021670997
50	0x38559c94	5.0928982e-05
51	0xbcc5041d	-0.024049813
52	0xbc801210	-0.015633613
53	0xbb5387b0	-0.003227692
54	0x3c6608f1	0.014040218
55	0xbd35dbae	-0.044398956
56	0x3d6fbed5	0.0585316
57	0x3c8f1713	0.017467057
58	0x3b3aef2a	0.00285239
59	0x3b29526f	0.0025836488
60	0x3b56d238	0.0032779109
61	0x3ca2e1b7	0.01988302
62	0xbc3dc602	-0.011582853
63	0xbd629766	-0.055320166

features.5.weight f4 [64]
0	0x3f80106c	1.0005012
1	0x3f7ff463	0.9998228
2	0x3f8012e5	1.0005766
3	0x3f7fe42d	0.99957544
4	0x3f7fe6e0	0.9996166
5	0x3f800e20	1.0004311
6	0x3f7ff3d7	0.99981445
7	0x3f801407	1.0006112
8	0x3f7ff189	0.9997793
9	0x3f8012c2	1.0005724
10	0x3f7fe419	0.99957424
11	0x3f7fe010	0.9995127
12	0x3f7fd992	0.9994136
13	0x3f800cb3	1.0003875
14	0x3f800b0c	1.0003371
15	0x3f800e08	1.0004282
16	0x3f800c35	1.0003725
17	0x3f800c4f	1.0003756
18	0x3f7fe122	0.999529
19	0x3f7ff545	0.99983627
20	0x3f800802	1.0002444
21	0x3f8011aa	1.0005391
22	0x3f800c64	1.0003781
23	0x3f80070b	1.0002149
24	0x3f7ff4e6	0.9998306
25	0x3f800f13	1.00046
26	0x3f7fe8ce	0.99964607
27	0x3f7ffdbb	0.99996537
28	0x3f7fefe7	0.99975437
29	0x3f7fdedc	0.9994943
30	0x3f7fe2e2	0.9995557
31	0x3f800aee	1.0003335
32	0x3f7fd1b3	0.9992935
33	0x3f80148a	1.0006268
34	0x3f7ffb5d	0.99992925
35	0x3f801140	1.0005264
36	0x3f7fdf42	0.9995004
37	0x3f7fe4d2	0.9995853
38	0x3f8006e8	1.0002108
39	0x3f80009f	1.000019
40	0x3f8010d1	1.0005132
41	0x3f8008a7	1.000264
42	0x3f800506	1.0001533
43	0x3f7fdc0e	0.9994515
44	0x3f800e08	1.0004282
45	0x3f800fba	1.0004799
46	0x3f80036e	1.0001047
47	0x3f80110f	1.0005206
48	0x3f7fe7d7	0.99963135
49	0x3f80014b	1.0000395
50	0x3f80121b	1.0005525
51	0x3f7ffa5e	0.99991405
52	0x3f7fdb09	0.99943596
53	0x3f80124e	1.0005586
54	0x3f800cfb	1.0003961
55	0x3f800020	1.0000038
56	0x3f7fe566	0.9995941
57	0x3f7ff9d4	0.9999058
58	0x3f7fd677	0.9993662
59	0x3f801194	1.0005364
60	0x3f8001bd	1.000053
61	0x3f7ff3fd	0.9998167
62	0x3f7fe1c1	0.9995385
63	0x3f7ff517	0.9998335

features.5.bias f4 [64]
0	0xb989bfa5	-0.00026273463
1	0xb94faaa6	-0.0001980463
2	0x3a1da26a	0.0006013276
3	0xba058549	-0.00050934084
4	0x39f546c2	0.0004678276
5	0x39d66e23	0.0004089932
6	0xb879ae93	-5.952881e-05
7	0x3a0e6b10	0.00054328237
8	0xb96f87f0	-0.00022843457
9	0x382968ae	4.039023e-05
10	0xb9d3ba8f	-0.00040384053
11	0xba0c090e	-0.00053419254
12	0xb9875263	-0.0002581059
13	0x39e4b4ee	0.00043622352
14	0x391bfdfb	0.00014876567
15	0xb98d68ea	-0.00026971783
16	0x39937f91	0.0002813307
17	0x371c15c7	9.303395e-06
18	0xba085cf8	-0.00052018417
19	0xb98e766e	-0.00027172588
20	0x381c87ca	3.731976e-05
21	0x3a0fb718	0.00054823
22	0xb92a97b1	-0.00016268973
23	0x39d6d5cc	0.00040976552
24	0xba137938	-0.0005625668
25	0x39ccc1b1	0.00039054223
26	0x38a40bff	7.822364e-05
27	0x3a250d54	0.00062962365
28	0xb926d920	-0.00015911879
29	0xba0a63ee	-0.0005279173
30	0xb9e4b6b2	-0.00043623667
31	0x3997008e	0.00028801378
32	0xba401706	-0.00073276495
33	0x3a3125fd	0.0006757675
34	0x39ad7adb	0.00033088666
35	0x3a196ef3	0.00058530195
36	0xb9eee0da	-0.00045562425
37	0xb94a260c	-0.00019278395
38	0xb9d97335	-0.000414753
39	0x392f6d54	0.00016730028
40	0xb9c01e9d	-0.00036643902
41	0xba2dbe24	-0.00066277594
42	0x394ea2f3	0.00019706394
43	0xba0dc986	-0.00054087525
44	0xb9d48782	-0.00040536752
45	0x39fbdfe5	0.00048041265
46	0x394053a5	0.00018341707
47	0xba31e923	-0.0006786754
48	0xb9e8d405	-0.00044408455
49	0xb75fb01e	-1.3332841e-05
50	0x39d2c82b	0.00040203458
51	0xb99286b6	-0.00027947658
52	0xb9fe3718	-0.00048487703
53	0x39de1820	0.00042361114
54	0xba24453a	-0.0006266419
55	0xb9cdbe97	-0.00039242647
56	0xb9df6534	-0.00042609277
57	0xb8afc92b	-8.382121e-05
58	0x3791c11f	1.7375276e-05
59	0x39fa8a5b	0.000477868
60	0x398aa506	0.00026444363
61	0xb9c16b07	-0.0003689157
62	0xb9fd36d1	-0.00048296762
63	0xb9bf5171	-0.00036491037

features.5.running_mean f4 [64]
0	0x3db2fbdc	0.087394446
1	0x3d697cca	0.057003774
2	0xbd601bb1	-0.05471391
3	0xbe1f5cc7	-0.15562735
4	0xbe1097a7	-0.14120351
5	0x3d39e6d7	0.04538616
6	0xbdad53ce	-0.0846325
7	0xbdd3d4e9	-0.10343344
8	0xbce4849e	-0.027895268
9	0xbd77e089	-0.060516868
10	0x3d0ca04c	0.03433256
11	0xbe340017	-0.1757816
12	0x3dedecdd	0.11617444
13	0xbd06836e	-0.032840185
14	0xbc4fcece	-0.012683583
15	0xbed864d3	-0.42264423
16	0xbd94fc34	-0.072746664
17	0x3e72ba90	0.2370398
18	0x3da504a7	0.08057528
19	0xbc505162	-0.012714716
20	0xbc9c01e4	-0.01904387
21	0xbe06ad72	-0.13152102
22	0xbd10d801	-0.035362247
23	0x3ee2017f	0.44141766
24	0x3d905259	0.070469566
25	0x3e092993	0.13394766
26	0xbe1135c4	-0.14180666
27	0x3e5a5eac	0.21325177
28	0xbe4d1bac	-0.20030087
29	0x3e4d7029	0.20062317
30	0xbe0a4763	-0.13503794
31	0xbe043d76	-0.1291407
32	0x3d934dca	0.071925715
33	0xbcd6d2bb	-0.026223531
34	0xbdb4906c	-0.08816609
35	0x3eef75bb	0.4676951
36	0x3d9b51ca	0.075839594
37	0xbe7163c0	-0.23573208
38	0x3e1839f9	0.14865865
39	0xbe62ea52	-0.22159699
40	0x3d9dcd24	0.07705143
41	0x3e3ba639	0.18325128
42	0xbe676374	-0.22596532
43	0x3c98824d	0.01861682
44	0xbd0060ea	-0.031342424
45	0x3ca789f0	0.020451516
46	0xbe66e5bc	-0.22548574
47	0xbb771e47	-0.0037707256
48	0x3bed0c43	0.0072341277
49	0x3db6fe22	0.08935191
50	0xbdc8ef6c	-0.09811291
51	0xbdb609c8	-0.088885844
52	0xbd24b43f	-0.04021096
53	0xbe64da54	-0.2234891
54	0x3d0ae71c	0.03391181
55	0x3e129e75	0.14318259
56	0xbd8bebc4	-0.06832078
57	0xbe5d80fa	-0.21631232
58	0x3e8d8411	0.2763982
59	0x3dd2d71f	0.10294937
60	0x3dc64053	0.096802376
61	0x3eb76495	0.35818925
62	0x3e05207b	0.13000672
63	0x3c6b132f	0.014347835

features.5.running_var f4 [64]
0	0x3eebaf0e	0.46031994
1	0x3ed715ad	0.42008725
2	0x3f233323	0.63749903
3	0x3ef69098	0.4815719
4	0x3ee5c2cb	0.44875178
5	0x3ee74675	0.45170942
6	0x3ee0fd49	0.4394324
7	0x3ed8c31f	0.42336366
8	0x3f3445d1	0.7041903
9	0x3f0609fe	0.52358997
10	0x3eedc8e1	0.4644232
11	0x3ee75fd3	0.45190296
12	0x3eddfa8d	0.43355218
13	0x3ee41d7d	0.44553748
14	0x3eda2d6e	0.42612785
15	0x3ef16050	0.47143793
16	0x3eeb25f2	0.45927387
17	0x3f101483	0.562813
18	0x3ee6c4c8	0.45072007
19	0x3f06aefd	0.5261076
20	0x3edcb2ff	0.43105313
21	0x3f0b16ec	0.5433185
22	0x3ed6085a	0.41803247
23	0x3f10c5e3	0.5655195
24	0x3edf2863	0.435855
25	0x3ef1dd8e	0.47239345
26	0x3eede3da	0.464629
27	0x3edf367b	0.43596253
28	0x3ee0dea6	0.43919867
29	0x3ee5b695	0.44865862
30	0x3ee3e8e6	0.44513625
31	0x3f005981	0.5013657
32	0x3ee36cbb	0.44418892
33	0x3f22ba9a	0.6356598
34	0x3ef0fee0	0.47069454
35	0x3f12dd3a	0.57368815
36	0x3eede4e2	0.46463686
37	0x3eec6b21	0.46175483
38	0x3ee1ae6a	0.4407838
39	0x3efeb4cf	0.4974732
40	0x3eec564a	0.46159583
41	0x3ee26fcc	0.4422592
42	0x3eef67fa	0.46759015
43	0x3edbb629	0.42912415
44	0x3ed95503	0.4244767
45	0x3f02207e	0.5083083
46	0x3f1ac612	0.6045848
47	0x3edf43d3	0.43606433
48	0x3ee615b4	0.44938433
49	0x3ef425d8	0.47685122
50	0x3ef8038e	0.48440212
51	0x3ee0d987	0.4391596
52	0x3efaada1	0.48960593
53	0x3f06313a	0.52418864
54	0x3ee02d79	0.43784693
55	0x3ef8a8de	0.48566335
56	0x3edc1279	0.42982844
57	0x3edad37d	0.42739478
58	0x3efed898	0.49774623
59	0x3eec1f1a	0.4611748
60	0x3f0d1080	0.551033
61	0x3f0ac854	0.54211926
62	0x3ede1a7c	0.4337958
63	0x3f00826a	0.50198996

features.8.weight f4 [128, 64, 3, 3]
0	0x3cb7e566	0.022448253
1	0xbd2442d5	-0.0401028
2	0xbc0020f3	-0.007820356
3	0xbd174d08	-0.036938697
4	0x3d15d2ce	0.036577992
5	0xbb93c567	-0.004509616
6	0xbc3c779c	-0.0115031265
7	0xbc82cab1	-0.015965791
8	0x3a3399dc	0.0006851235
9	0xbcadb08f	-0.021202354
10	0xbce87b3e	-0.028379079
11	0xbd07afdc	-0.033126697
12	0x3c6367ab	0.013879697
13	0x3c9b1b2d	0.018933857
14	0xbbafb087	-0.00536162
15	0x3c588379	0.013214939
16	0x3cfdcfa3	0.030982798
17	0x3b600f70	0.003418889
18	0xbc6a52a4	-0.01430193
19	0x3c81e3a6	0.015855622
20	0x3d1f9527	0.038960602
21	0xbc3b9a42	-0.011450352
22	0x3cef60e9	0.029221015
23	0xbd100996	-0.03516539
24	0xbac473a5	-0.0014988078
25	0x3d03139d	0.032001127
26	0x3d19e8cc	0.037575528
27	0xbd0867a5	-0.033301968
28	0x3d29db0b	0.04146866
29	0xbcfc38ee	-0.030788865
30	0xbc95322e	-0.018212404
31	0xbc9fa3d5	-0.0194873
32	0xbc826f0b	-0.01592209
33	0xbd0d0a08	-0.034433395
34	0xbcd928c5	-0.026508698
35	0xbce679a0	-0.028134167
36	0xbcdc955b	-0.026926687
37	0x3ce0d77c	0.027446501
38	0x3bb65ca3	0.0055652424
39	0xbc87e75d	-0.016589815
40	0x3cd50552	0.026003513
41	0x3cebf164	0.028801627
42	0xbb466d0f	-0.0030277406
43	0x3ceae56c	0.02867385
44	0x3cd54d8c	0.026037954
45	0x3d0c012c	0.034180805
46	0xbce26236	-0.027634721
47	0xbc081784	-0.008306388
48	0x3bb5470f	0.0055321525
49	0x3ac1b33a	0.0014778145
50	0xbce28316	-0.027650397
51	0xbc84ffa7	-0.016235186
52	0xbcb907b6	-0.022586685
53	0xbcd93548	-0.026514664
54	0x3ccb6a4b	0.024830958
55	0x3d0f3181	0.03495932
56	0x3c478a60	0.012178987
57	0x3ce8d31b	0.028420975
58	0xbb6d901e	-0.003624923
59	0xbd21f8b2	-0.039543815
60	0xbd033c7f	-0.032040115
61	0xbce03526	-0.027369093
62	0x3d1a6bb3	0.037700366
63	0xbcef7c66	-0.029234122
64	0xbc32f13a	-0.010921771
65	0x3c97eaef	0.018544642
66	0x3ca644c5	0.020296464
67	0x3d023047	0.031784322
68	0x3d1fb169	0.03898755
69	0x3b4c78b2	0.003119987
70	0xbcbff082	-0.023430113
71	0x3ab5a940	0.0013859645
72	0x3c170924	0.009218488
73	0x3cfc3b6b	0.030790051
74	0x3c8fd9af	0.017559854
75	0x3c98cbd0	0.018651873
76	0xbccec600	-0.025240898
77	0x3c6bac1c	0.014384296
78	0xbc321e1e	-0.010871438
79	0x3cf3deea	0.02976938
80	0xbc854700	-0.016269207
81	0x3c4d0111	0.012512461
82	0xbd2c624f	-0.042085942
83	0x3cfc6ba7	0.030813051
84	0xbcbc0214	-0.02295021
85	0x3c41d373	0.011830199
86	0x3ca32193	0.01991347
87	0x3cae8ef1	0.021308394
88	0x3c3729e3	0.01117942
89	0x3c901076	0.017585974
90	0xbd1fc621	-0.03900731
91	0x3ca8aae7	0.020589305
92	0xbbd753b4	-0.0065712575
93	0x3d0e6e95	0.034773428
94	0x3cd0c0d4	0.025482573
95	0xbbbd29da	-0.0057728114
96	0xbd233f6f	-0.039855417
97	0x3cb46c63	0.022024339
98	0x3c2ffbd7	0.010741196
99	0x3d14c8da	0.03632436
100	0xbcf84fa1	-0.030311408
101	0x3c7428b2	0.014902281
102	0x3cf564a3	0.029955214
103	0xbad323e3	-0.0016108718
104	0x3ca638f5	0.020290831
105	0x3c973ede	0.018462595
106	0x3cd67de0	0.026183069
107	0x3ca76853	0.020435488
108	0x3cd7bc89	0.026335018
109	0xbd27dec3	-0.040983927
110	0x3cecab47	0.028890265
111	0xbb93688f	-0.0044985483
112	0xba887651	-0.0010411238
113	0xbccd758b	-0.025080463
114	0x3d0a71fe	0.033800118
115	0xbc82e05b	-0.015976122
116	0x3bfb7af1	0.007674568
117	0x3cd09265	0.025460431
118	0xbc46cf12	-0.01213433
119	0x3d0d6f11	0.03452975
120	0xbcaad2be	-0.020852443
121	0xbd299e67	-0.04141083
122	0xbcd85efd	-0.026412481
123	0xbab8ba19	-0.0014093547
124	0x3d0e4d70	0.03474182
125	0x3b009da9	0.0019625223
126	0xbd0f114e	-0.034928612
127	0x3b9375e5	0.004500138
128	0x3d23ba19	0.0399724
129	0x3c80fbb8	0.015745029
130	0xbd16a05c	-0.036774024
131	0x3c76a161	0.015053124
132	0x3d10c2f9	0.03534219
133	0x3c6fb9d1	0.014631704
134	0xbba280bf	-0.0049591954
135	0xbce360cb	-0.027756115
136	0x3af6a3aa	0.0018817086
137	0xbb2b2661	-0.0026115405
138	0xbcf48e88	-0.02985312
139	0xbd138382	-0.036014087
140	0x3cbb41be	0.022858497
141	0xbd0dcdd4	-0.03462012
142	0xbc6d6ab5	-0.014490773
143	0xbb2750da	-0.002553037
144	0xbc9e7a01	-0.019345285
145	0xbd07cd28	-0.033154637
146	0xbca74474	-0.020418383
147	0xbcbdcd6a	-0.023169238
148	0xbcfdf085	-0.030998478
149	0xbcbe01fb	-0.023194304
150	0x3ca362ea	0.019944627
151	0x3cee126e	0.029061522
152	0x3d24729e	0.04014837
153	0x3cb5ba08	0.022183433
154	0x3cc25711	0.023723157
155	0xbc919d1f	-0.017775116
156	0xbcde7250	-0.027154118
157	0xbbb7dcd2	-0.0056110406
158	0xbb6c0d65	-0.0036018726
159	0x3c18b943	0.009321514
160	0xbcc24b8b	-0.023717662
161	0x3c401921	0.011724741
162	0xbcd60b51	-0.026128443
163	0xbc94c91c	-0.018162303
164	0xbcac9235	-0.02106581
165	0x3cf778d1	0.030208977
166	0x3c89d9e1	0.016827526
167	0xbcbc0f6d	-0.022956574
168	0x3cab8f74	0.020942427
169	0x3b5653a9	0.0032703674
170	0x3c3e0287	0.011597282
171	0xbc55b747	-0.013044185
172	0xbce0d49c	-0.02744513
173	0x3ceac0ad	0.028656328
174	0x3ce9bafa	0.02853154
175	0x3a352e4e	0.0006911502
176	0x3d21ab47	0.039469983
177	0x3cc31607	0.023814214
178	0x3be39b1f	0.006945982
179	0xbb434842	-0.0029797708
180	0xbca0eae0	-0.019643247
181	0xbd1eb851	-0.038749997
182	0xbd014e49	-0.0315688
183	0xbc45e2c9	-0.012077996
184	0xbcacc32a	-0.021089155
185	0x3bbcab21	0.005757705
186	0xbcf26ddd	-0.029593403
187	0xbd00d3ad	-0.03145187
188	0x3c4686d6	0.012117108
189	0x3d17e161	0.037080172
190	0x3ca8dfad	0.02061447
191	0xbcac4315	-0.021028081
192	0xbb812a5c	-0.003941817
193	0xbce6d742	-0.028178815
194	0x3bd881f7	0.00660729
195	0xbd1298f3	-0.035790395
196	0x3cc75d84	0.024336584
197	0xbb30d851	-0.0026984403
198	0xbc275a36	-0.010214379
199	0xbcd42e7b	-0.02590107
200	0xbc4a1c15	-0.012335797
201	0x3c886930	0.01665172
202	0xbd07a058	-0.0331119
203	0x3cc6d203	0.024270063
204	0x3cd6cbbb	0.026220193
205	0xbcd02b67	-0.02541132
206	0xba9f0b60	-0.0012134127
207	0xbbf0e831	-0.007351898
208	0xbcbab602	-0.022791866
209	0xbc75ac97	-0.014994762
210	0x3cf80291	0.030274661
211	0x3ca7447c	0.020418398
212	0xbc577a6e	-0.013151748
213	0xba290821	-0.00064480497
214	0x3c7f5dac	0.015586298
215	0xbcd2e948	-0.025746003
216	0x3d0f9487	0.035053756
217	0xbcadea0f	-0.021229772
218	0x3bba52c4	0.005686136
219	0x3d1784a3	0.036991727
220	0x3b49b6c8	0.0030779112
221	0xbc49ef47	-0.012325115
222	0x3d03f3dc	0.032214984
223	0xbd05eb3f	-0.03269505
224	0x3cea8832	0.028629396
225	0x3caa17b5	0.020763258
226	0xbca6a380	-0.020341635
227	0x3cfe1e91	0.031020435
228	0x3c992905	0.018696317
229	0x3d109edf	0.03530776
230	0xbc2b9f69	-0.010475018
231	0x3b56fc36	0.0032804138
232	0xbd2a1a12	-0.04152877
233	0xbcf273e1	-0.029596271
234	0x3d1a024b	0.037599843
235	0x3c27b0fd	0.010235068
236	0xbc3cd5ca	-0.011525581
237	0x3cb25250	0.021767765
238	0xbbc81855	-0.006106416
239	0xbbeb102c	-0.0071735587
240	0x3cd7f985	0.026364097
241	0x3cd55b5e	0.026044544
242	0x3bbd1c59	0.0057712016
243	0x3b88c0e7	0.0041733864
244	0x3cf6acdb	0.03011172
245	0xbc325607	-0.010884768
246	0x3c488678	0.012239091
247	0x3d108382	0.035281666
248	0x3ca20563	0.01977796
249	0xbbc10e32	-0.005891585
250	0x3d129f91	0.035796706
251	0x3c41fb67	0.011839724
252	0xbb86fa2b	-0.004119178
253	0x3d061872	0.032738157
254	0x3cd387e7	0.02582164
255	0xbcfc2828	-0.030780867

features.8.bias f4 [128]
0	0x3d13d810	0.036094725
1	0xbbddb514	-0.006765971
2	0xbc7d6592	-0.015466111
3	0x3c08cfde	0.008350341
4	0x3c9982e7	0.018739177
5	0x3a070382	0.0005150364
6	0xbd1c4c65	-0.038158793
7	0xbce05aa6	-0.027386975
8	0x3ca91b0f	0.020642785
9	0xbc9ae811	-0.018909486
10	0xba8b364b	-0.0010621039
11	0x3b8b5bea	0.0042529004
12	0x3cbeb5dd	0.023280079
13	0x3cc53592	0.024073396
14	0x3d0292e7	0.03187838
15	0xbd121f55	-0.03567441
16	0x3cd45ac4	0.025922187
17	0x3cf6a084	0.030105837
18	0xbd081fef	-0.03323358
19	0x3be6a78e	0.007039017
20	0x3cf91e13	0.030409848
21	0x3ca0c38a	0.01962449
22	0x3bad97f1	0.005297654
23	0xbd0c0ade	-0.03419005
24	0xbc61450b	-0.013749371
25	0x3cbfd187	0.02341534
26	0xbcefb9e6	-0.029263448
27	0xb913d776	-0.00014099278
28	0xbcc518ba	-0.024059642
29	0x3d220bcc	0.03956203
30	0xbd136a5d	-0.035990108
31	0x3d02ecf6	0.031964265
32	0x3d1e7412	0.038684912
33	0xbd0ecf5f	-0.034865733
34	0x3cfe6f97	0.03105907
35	0xbcd15106	-0.02555133
36	0xbcc2c05a	-0.023773361
37	0xbcc04487	-0.023470176
38	0xbccdc5dc	-0.02511876
39	0x3cd519e6	0.026013326
40	0x3bfee2ab	0.007778486
41	0xbc8293ca	-0.015939612
42	0xbcd6f652	-0.026240502
43	0xbb0e4364	-0.0021707648
44	0xbd106c82	-0.03525973
45	0xbd136739	-0.035987113
46	0x3d24fb48	0.040278703
47	0x3ca1bedc	0.01974433
48	0x3c7273b5	0.0147980945
49	0x3c3b6188	0.0114368275
50	0xbc97e81f	-0.018543301
51	0x3d066dbe	0.032819502
52	0x3c71f9ff	0.014769076
53	0x3d1a16b6	0.037619315
54	0x3b861b24	0.004092591
55	0xbbde3d81	-0.006782234
56	0xbd1d2a51	-0.038370434
57	0x3d1a9334	0.03773804
58	0xbcac27b7	-0.021015031
59	0xbc8adf47	-0.01695217
60	0x3d2614a1	0.040547017
61	0x3cda2f71	0.02663395
62	0x3d0d97e2	0.034568675
63	0xb9d90261	-0.00041391238
64	0xbc759a8d	-0.014990461
65	0xbc7c7b89	-0.015410312
66	0xbc87913a	-0.016548742
67	0x3d259e8d	0.04043441
68	0x3c545e1e	0.012961892
69	0xbd1fa207	-0.03897288
70	0x3b9315e3	0.004488693
71	0x3bf36223	0.0074274703
72	0x3d0da403	0.034580242
73	0x3a4be5cd	0.00077780784
74	0xbcaf5141	-0.02140105
75	0x3b06dfef	0.0020580252
76	0x3c554fad	0.0130194845
77	0xbbdebe7c	-0.00679761
78	0xbc0c4a3c	-0.008562621
79	0xbc941e8a	-0.018080968
80	0xbc879bad	-0.016553724
81	0x3d1d0f73	0.03834481
82	0xbcf365e4	-0.029711671
83	0x3d0deaea	0.03464786
84	0xb9c5700e	-0.00037658255
85	0x3cde13aa	0.027108986
86	0xbcefbe9f	-0.0292657
87	0xbcde569e	-0.027140912
88	0xbc77057f	-0.015076994
89	0x3d00f1c4	0.031480566
90	0x3d0a2acc	0.03373222
91	0x3c4bc29e	0.012436537
92	0xbd057b44	-0.03258826
93	0xbbab4d43	-0.005227716
94	0xbd277a5a	-0.040888168
95	0xbcdb27e3	-0.026752418
96	0x3c1f1eda	0.009711945
97	0xbc1b269a	-0.009469653
98	0xbd2a59af	-0.041589435
99	0x3cca3007	0.024681104
100	0x3bb08f78	0.0053881966
101	0xba8f1ed3	-0.001091922
102	0xbc70862a	-0.014680425
103	0x3cc3e71d	0.023913914
104	0xbbc76e5e	-0.006086155
105	0x3c0f2f02	0.008739235
106	0xbd219059	-0.0394443
107	0x3b551fee	0.0032520252
108	0xbd299a75	-0.041407067
109	0xbc732e00	-0.01484251
110	0x3c0af9b8	0.008482389
111	0xbd049718	-0.032370657
112	0xbb9ee3ab	-0.0048489175
113	0xbccb41f5	-0.024811724
114	0x3ac2e6a7	0.0014869765
115	0x3c650acd	0.013979626
116	0xbc35b9cb	-0.01109166
117	0xbcedde4e	-0.029036667
118	0x3a1f4bc6	0.000607666
119	0xbaa489e9	-0.0012553307
120	0xbc39cca4	-0.011340294
121	0x3c47fe97	0.012206695
122	0xbc188654	-0.00930937
123	0x3b39c5bc	0.0028346619
124	0x3c2cf860	0.010557264
125	0x3ce0872d	0.027408207
126	0x3cf3fb9a	0.029783059
127	0x3d1f7eda	0.038939334

features.9.weight f4 [128]
0	0x3f8010e3	1.0005153
1	0x3f7ff2da	0.9997994
2	0x3f800f21	1.0004617
3	0x3f800f04	1.0004582
4	0x3f7fe3a5	0.99956733
5	0x3f800f20	1.0004616
6	0x3f7fe92e	0.9996518
7	0x3f800b15	1.0003382
8	0x3f800e0d	1.0004288
9	0x3f7fde36	0.9994844
10	0x3f800dc9	1.0004207
11	0x3f800f83	1.0004734
12	0x3f800f35	1.0004641
13	0x3f800f06	1.0004585
14	0x3f800e57	1.0004376
15	0x3f7fdfb1	0.999507
16	0x3f7fe1f3	0.99954146
17	0x3f800ea1	1.0004464
18	0x3f7fe4ad	0.99958307
19	0x3f800cbf	1.000389
20	0x3f800ed8	1.000453
21	0x3f800e0a	1.0004284
22	0x3f800c4a	1.000375
23	0x3f800d99	1.000415
24	0x3f800c6f	1.0003794
25	0x3f7fe341	0.99956137
26	0x3f7fe490	0.99958134
27	0x3f800f10	1.0004597
28	0x3f800a8d	1.000322
29	0x3f7fdec9	0.9994932
30	0x3f7fdb99	0.99944454
31	0x3f7fe949	0.9996534
32	0x3f800f43	1.0004658
33	0x3f8009d2	1.0002997
34	0x3f7fe4d4	0.9995854
35	0x3f7fe33d	0.99956113
36	0x3f7fea85	0.99967223
37	0x3f7fe8a1	0.9996434
38	0x3f800b3b	1.0003427
39	0x3f7fe2fd	0.9995573
40	0x3f7fe1ce	0.99953926
41	0x3f800de4	1.0004239
42	0x3f800f4b	1.0004667
43	0x3f7fdde7	0.9994797
44	0x3f7fe0bc	0.9995229
45	0x3f800d15	1.0003992
46	0x3f800f6a	1.0004704
47	0x3f7fe039	0.9995151
48	0x3f8009d3	1.0002998
49	0x3f800e30	1.000433
50	0x3f7fe707	0.99961895
51	0x3f7fe046	0.9995159
52	0x3f7fe833	0.9996368
53	0x3f7fe2ba	0.9995533
54	0x3f800c6d	1.0003792
55	0x3f800f71	1.0004712
56	0x3f800eae	1.000448
57	0x3f7fe8ec	0.99964786
58	0x3f800f62	1.0004694
59	0x3f7fe3af	0.9995679
60	0x3f7ff00d	0.99975663
61	0x3f800efe	1.0004575
62	0x3f800b99	1.0003539
63	0x3f7fe502	0.99958813
64	0x3f80100b	1.0004896
65	0x3f800b50	1.0003452
66	0x3f800f9f	1.0004767
67	0x3f7fe28d	0.99955064
68	0x3f800cf5	1.0003954
69	0x3f800c79	1.0003806
70	0x3f7fdf58	0.9995017
71	0x3f7fe63c	0.99960685
72	0x3f801085	1.0005041
73	0x3f800ee1	1.0004541
74	0x3f7fe2ad	0.99955255
75	0x3f800d8f	1.0004138
76	0x3f7fe168	0.9995332
77	0x3f800b16	1.0003383
78	0x3f800cae	1.000387
79	0x3f800dd1	1.0004216
80	0x3f7fe0c3	0.99952334
81	0x3f800804	1.0002446
82	0x3f7fe7f0	0.99963284
83	0x3f7fe0f3	0.9995262
84	0x3f7fde0c	0.9994819
85	0x3f800e9e	1.0004461
86	0x3f800ca1	1.0003854
87	0x3f800ce8	1.0003939
88	0x3f800bfe	1.000366
89	0x3f7feb58	0.9996848
90	0x3f7fdf6e	0.999503
91	0x3f7fe35a	0.99956286
92	0x3f800ef1	1.000456
93	0x3f8011f8	1.0005484
94	0x3f800c8d	1.000383
95	0x3f7fe2de	0.99955547
96	0x3f8009cd	1.0002991
97	0x3f800ecb	1.0004514
98	0x3f7fe328	0.9995599
99	0x3f7fe647	0.9996075
100	0x3f800d3d	1.000404
101	0x3f800fbe	1.0004804
102	0x3f7ff7e8	0.9998765
103	0x3f8011b2	1.00054
104	0x3f7fe446	0.9995769
105	0x3f800e12	1.0004294
106	0x3f7fe38a	0.9995657
107	0x3f80090c	1.0002761
108	0x3f7fe944	0.9996531
109	0x3f800f40	1.0004654
110	0x3f7fe760	0.99962425
111	0x3f7fe1f1	0.99954134
112	0x3f7fe0b7	0.9995226
113	0x3f800de8	1.0004244
114	0x3f800fc7	1.0004815
115	0x3f7fe1cf	0.9995393
116	0x3f800d3e	1.0004041
117	0x3f7fe65a	0.99960864
118	0x3f800fc8	1.0004816
119	0x3f800f62	1.0004694
120	0x3f800ede	1.0004537
121	0x3f800bf7	1.0003651
122	0x3f7fe189	0.99953514
123	0x3f800f1e	1.0004613
124	0x3f7fe4ad	0.99958307
125	0x3f7fe827	0.9996361
126	0x3f7fe9d1	0.9996615
127	0x3f800d7a	1.0004113

features.9.bias f4 [128]
0	0x39fc5317	0.00048127092
1	0xb9bbb4b5	-0.00035802057
2	0x39fb27c5	0.0004790408
3	0x39edd917	0.00045365907
4	0xb9f12792	-0.00045996584
5	0x39f9e453	0.00047663096
6	0xb9d516c9	-0.00040643502
7	0x39d7717c	0.00041092548
8	0x39eecb0a	0.00045546173
9	0xb9fa2cb8	-0.00047717034
10	0x39e72cef	0.00044093232
11	0x39f7f494	0.00047293736
12	0x39fa7dc9	0.00047777433
13	0x39ec6920	0.00045091752
14	0x39ea4562	0.00044683652
15	0xb9ff79b5	-0.0004872807
16	0xb9f5085b	-0.00046736267
17	0x39ef8970	0.0004568803
18	0xb9dc9efd	-0.00042080125
19	0x39c980a8	0.00038433564
20	0x39f37292	0.00046433933
21	0x39ec5d4c	0.0004508294
22	0x39ddc4dc	0.00042299076
23	0x39ee7c41	0.00045487474
24	0x39daf6e6	0.00041764154
25	0xb9ee6e2e	-0.00045476988
26	0xb9e4d41f	-0.0004364559
27	0x39f87c53	0.00047394875
28	0x39df8f4e	0.00042640645
29	0xb9ef0f54	-0.00045597053
30	0xb9f7edfb	-0.0004728882
31	0xb9d6c5f7	-0.00040964756
32	0x39f5d785	0.00046890616
33	0x39caf01d	0.0003870734
34	0xb9f03846	-0.00045818294
35	0xb9f362d5	-0.00046422207
36	0xb9c38666	-0.00037293433
37	0xb9bf229f	-0.00036456154
38	0x39db1684	0.0004178771
39	0xba007795	-0.00049006316
40	0xb9eeaa1e	-0.00045521645
41	0x39eb1820	0.00044840667
42	0x39f6845e	0.00047019398
43	0xba031ff8	-0.0005002017
44	0xb9fa24ac	-0.00047711038
45	0x39ee3749	0.00045436088
46	0x39f576a0	0.00046818424
47	0xb9fe3173	-0.00048483498
48	0x39dff456	0.0004271592
49	0x39da566f	0.00041644598
50	0xb9e0412e	-0.00042773172
51	0xba0ce8c9	-0.0005375264
52	0xb9dc17d3	-0.0004197942
53	0xb9efb1fc	-0.0004571824
54	0x39e1999c	0.00043029792
55	0x39fa37a2	0.00047725165
56	0x39efb488	0.0004572014
57	0xb9dbfe51	-0.00041960416
58	0x39f8b369	0.00047435917
59	0xb9ec19f8	-0.00045032776
60	0xb9ccd393	-0.00039067547
61	0x39f29f63	0.0004627659
62	0x39d328fd	0.00040275595
63	0xb9f53a2f	-0.00046773392
64	0x39f8e2c0	0.00047471188
65	0x39cc6835	0.00038987552
66	0x39f63d02	0.0004696623
67	0xb9eeb80e	-0.0004553203
68	0x39f14714	0.0004602006
69	0x39dfa65a	0.00042657816
70	0xba018a3e	-0.0004941559
71	0xb9cc90d5	-0.0003901782
72	0x39f8ab37	0.0004742981
73	0x39f49830	0.00046652695
74	0xb9fd4574	-0.00048307667
75	0x39dcf2e4	0.00042142638
76	0xb9f1b253	-0.00046099964
77	0x39c8faf6	0.00038333953
78	0x39e0fa92	0.000429113
79	0x39e4c724	0.0004363592
80	0xb9f1d346	-0.00046124513
81	0x39afcddd	0.0003353198
82	0xb9e882cc	-0.0004434794
83	0xb9fed746	-0.00048607046
84	0xba04d0d5	-0.0005066519
85	0x39ebd1e1	0.00044979065
86	0x39e7e450	0.0004422986
87	0x39e3f550	0.00043479586
88	0x39d24e7b	0.00040112794
89	0xb9ccf549	-0.00039092664
90	0xb9fa437c	-0.00047733996
91	0xb9e97617	-0.00044529207
92	0x39f2c7ec	0.0004630679
93	0x3a009106	0.00049044227
94	0x39e858e9	0.00044316732
95	0xb9f0d0d4	-0.00045931956
96	0x39d7283f	0.0004103798
97	0x39f26c30	0.00046238443
98	0xb9e31a63	-0.00043316474
99	0xb9dd4b5a	-0.00042208546
100	0x39e73c03	0.00044104466
101	0x39f72c3c	0.00047144468
102	0xb9b53ae3	-0.00034566884
103	0x39f7c8a2	0.00047260994
104	0xb9f53cd3	-0.0004677536
105	0x39ed35eb	0.00045244335
106	0xb9eac298	-0.00044776942
107	0x39b9666b	0.00035362257
108	0xb9dbdb10	-0.0004193415
109	0x39fdf5ec	0.00048439146
110	0xb9e0487e	-0.0004277862
111	0xb9f54b0c	-0.00046785956
112	0xb9fa01dc	-0.000476851
113	0x39e92a09	0.00044472542
114	0x39f97c61	0.0004758565
115	0xb9f7815a	-0.00047207886
116	0x39e4a111	0.00043607553
117	0xb9ed3508	-0.00045243674
118	0x39fbf925	0.00048060078
119	0x39e9a739	0.00044565814
120	0x39ed888b	0.00045305895
121	0x39df3e82	0.00042580446
122	0xb9f67d4f	-0.0004701414
123	0x39f0a0d3	0.0004589619
124	0xba00bcb7	-0.0004910933
125	0xb9e81e76	-0.00044273183
126	0xb9d4df73	-0.00040602274
127	0x39e019b3	0.00042743757

features.9.running_mean f4 [128]
0	0xbc1832a7	-0.00928942
1	0xbad43951	-0.0016191398
2	0xbe0a449f	-0.1350274
3	0xbe26921d	-0.16266675
4	0xbcbfffdc	-0.023437433
5	0xbea0c2ad	-0.31398526
6	0x3e094766	0.13406143
7	0xbd43c4a2	-0.047794946
8	0xbe1a6789	-0.15078558
9	0x3dfd1a7c	0.12358567
10	0xbce1f987	-0.027584804
11	0xbec5f4fd	-0.38663474
12	0xbeceb081	-0.40369037
13	0x3dc5c86e	0.096573696
14	0x3e603524	0.21895272
15	0x3e0fe5ab	0.14052455
16	0xbe9dca4c	-0.30818403
17	0xbe630b21	-0.22172214
18	0x3e81c863	0.25348195
19	0x3e9fef51	0.3123727
20	0xbe810546	-0.25199336
21	0xbe6e01eb	-0.23242919
22	0x3e3c9474	0.18416005
23	0xbd50dd5d	-0.05099236
24	0x3e12f73b	0.14352123
25	0x3e3f5aea	0.18687025
26	0x3d176100	0.03695774
27	0xbe986052	-0.29760987
28	0x3e503104	0.20331198
29	0x3dd356b9	0.103192754
30	0xbc7818b2	-0.015142607
31	0x3e34adf0	0.17644477
32	0xbef01953	-0.4689432
33	0x3de4cab3	0.11171474
34	0x3dda962e	0.10673176
35	0xbd80906a	-0.06277545
36	0x3debe564	0.11518362
37	0x3ead8926	0.33893698
38	0x3db67299	0.089085765
39	0x3b8ae553	0.0042387634
40	0xbe01438f	-0.12623428
41	0x3d981943	0.07426693
42	0xbeaf3263	-0.3421813
43	0xbd8c838b	-0.06861027
44	0xbd819c03	-0.06328585
45	0x3c0766b7	0.008264235
46	0xbe3fe271	-0.18738724
47	0xbe899a95	-0.2687575
48	0x3d04174f	0.03224879
49	0x3e718592	0.2358611
50	0xbe025550	-0.12727857
51	0x3e50ee59	0.20403422
52	0x3e191e0c	0.14952868
53	0x3e451d7b	0.19249527
54	0x3dd8e481	0.10590459
55	0xbd84216a	-0.06451686
56	0xbe85c12a	-0.26123935
57	0x3dd353cf	0.103187196
58	0xbd8e45a8	-0.069468796
59	0xbdd525ac	-0.10407576
60	0x3e740585	0.2383023
61	0xbd884d5b	-0.066553794
62	0x3c53641c	0.012902286
63	0x3d831226	0.06399946
64	0xbe29f6cb	-0.1659805
65	0x3e742e4d	0.23845787
66	0xbe6fb88e	-0.23410246
67	0x3d88b42c	0.0667499
68	0x3e548d4b	0.20757024
69	0xbddd3a71	-0.108021624
70	0x3dbab941	0.09117366
71	0x3c112f7d	0.00886142
72	0x3dcceaba	0.10005708
73	0xbdd74735	-0.105116285
74	0x3e26aca3	0.16276793
75	0x3a0c6694	0.00053558615
76	0x3da0fa66	0.0786026
77	0x3e888713	0.26665553
78	0xbe341026	-0.17584285
79	0xbe9c8429	-0.3056958
80	0xbe39632a	-0.18104234
81	0x3eba162e	0.36345047
82	0x3e386eac	0.18010968
83	0x3e9733dd	0.29531756
84	0x3e814fcc	0.25256193
85	0xbdf9eb32	-0.12203063
86	0xbe296181	-0.16541101
87	0x3e4c23b3	0.19935493
88	0x3eec25c9	0.46122578
89	0xbc316399	-0.010826969
90	0xbc767708	-0.015043028
91	0xbd8d5a52	-0.06901993
92	0xbe9bc0b2	-0.30420452
93	0x3dc468a8	0.09590274
94	0x3e2bb7ec	0.1676938
95	0xbdc300b1	-0.09521616
96	0x3caa4eff	0.020789621
97	0xbe9b7832	-0.3036514
98	0xbd8a9e04	-0.0676842
99	0x3ea8b8f4	0.32953608
100	0x3ddbfbd7	0.10741394
101	0xbd096841	-0.03354669
102	0x3e69e226	0.22840175
103	0x3d3dec28	0.046367794
104	0x3caff64b	0.021479746
105	0xbdea4289	-0.11438472
106	0xbdd62fb1	-0.10458315
107	0x3da5b612	0.08091368
108	0x3e65226e	0.22376415
109	0xbec534cd	-0.38516846
110	0x3b869c95	0.0041080215
111	0xbe8dd47b	-0.27701172
112	0x3e0724c8	0.13197625
113	0xbc1aebcf	-0.009455635
114	0xbe6da543	-0.23207574
115	0xbe9bdf32	-0.30443722
116	0xbe846ad2	-0.25862747
117	0x3d17a5f7	0.03702351
118	0xbd6ad53a	-0.057332255
119	0xbc3a2421	-0.011361153
120	0x3d9d8f29	0.07693321
121	0x3e575d95	0.21031792
122	0x3e49b102	0.1969643
123	0xbe49a61a	-0.19692269
124	0xbd864d79	-0.065577455
125	0x3d67b9a2	0.056573518
126	0x3dc53e66	0.09631042
127	0xbdb005c3	-0.08594849

features.9.running_var f4 [128]
0	0x3effa2d9	0.4992893
1	0x3f012858	0.50452185
2	0x3f0854a3	0.53254145
3	0x3f01b094	0.5066006
4	0x3ee87d56	0.45408124
5	0x3f24e175	0.6440652
6	0x3f14d614	0.5813916
7	0x3efb0084	0.4902383
8	0x3efd6d89	0.4949763
9	0x3f083215	0.5320142
10	0x3f249564	0.6429045
11	0x3f067b7c	0.5253217
12	0x3f1073f8	0.56426954
13	0x3f03aaef	0.514327
14	0x3ef7f628	0.4842999
15	0x3f068bce	0.52557075
16	0x3f0e4660	0.55576134
17	0x3f062315	0.5239728
18	0x3f0a5eb4	0.54050756
19	0x3f2b22d5	0.66850024
20	0x3f107d18	0.5644088
21	0x3f11a4d2	0.5689212
22	0x3f2101ed	0.62893564
23	0x3ef573ab	0.4793981
24	0x3efbd68e	0.4918713
25	0x3f04a233	0.51809996
26	0x3f04766d	0.51743203
27	0x3f0e6cbf	0.55634683
28	0x3eec559b	0.46159062
29	0x3f14506e	0.57935226
30	0x3efbd2e2	0.49184328
31	0x3efa01f7	0.48829624
32	0x3f0cb243	0.54959506
33	0x3f062ed7	0.5241522
34	0x3eeae14e	0.4587502
35	0x3eeb7dd1	0.45994428
36	0x3f1842ec	0.59477115
37	0x3f301f45	0.68797714
38	0x3ef0f3ef	0.47061107
39	0x3ef60a91	0.48054937
40	0x3eeb88a3	0.46002683
41	0x3ef646cb	0.48100886
42	0x3f108e56	0.5646719
43	0x3ef0a11f	0.46997926
44	0x3efe2abc	0.4964198
45	0x3ee2353e	0.44181246
46	0x3f1239eb	0.57119626
47	0x3f023e0e	0.5087594
48	0x3f06755b	0.5252282
49	0x3f16c2dd	0.5889109
50	0x3ef52c87	0.47885534
51	0x3ef0dd94	0.4704405
52	0x3f0ef894	0.5584805
53	0x3f0186fc	0.50596595
54	0x3f00edda	0.5036293
55	0x3f071011	0.5275889
56	0x3f1b13e5	0.6057723
57	0x3ef87f52	0.48534638
58	0x3f05c796	0.5225767
59	0x3ef360f9	0.47534922
60	0x3f0089f2	0.5021049
61	0x3f093bda	0.5360695
62	0x3f044022	0.5166036
63	0x3ef3e70d	0.47637215
64	0x3f0542bf	0.5205497
65	0x3f246fc9	0.6423307
66	0x3ef077e7	0.46966478
67	0x3f1d22e0	0.6138134
68	0x3ef78dbf	0.4835033
69	0x3eeef80c	0.4667362
70	0x3eff7b76	0.4989888
71	0x3efe1306	0.4962389
72	0x3f06acef	0.52607626
73	0x3f0d7b49	0.55266243
74	0x3eebf2b4	0.46083605
75	0x3f09b4a8	0.53791285
76	0x3f0097e0	0.5023174
77	0x3f0428cf	0.5162477
78	0x3f17abdd	0.5924662
79	0x3f132d1c	0.57490706
80	0x3ef5757c	0.47941196
81	0x3f20a6ba	0.62754405
82	0x3ef56586	0.4792902
83	0x3ef9595f	0.48700997
84	0x3ef3622d	0.4753584
85	0x3efe194b	0.49628672
86	0x3ef9dfbb	0.48803505
87	0x3ef4205e	0.47680944
88	0x3f22f6a8	0.6365762
89	0x3ef00f95	0.46886888
90	0x3ef75399	0.48305967
91	0x3f09d076	0.5383371
92	0x3f0b636d	0.54448587
93	0x3f29a240	0.662632
94	0x3ef3b63c	0.4759997
95	0x3eeda612	0.46415764
96	0x3eee9d3a	0.4660433
97	0x3f29228b	0.66068333
98	0x3f038b64	0.5138457
99	0x3f06492a	0.5245539
100	0x3efe1708	0.49626946
101	0x3ef57cef	0.4794688
102	0x3f01f946	0.50770986
103	0x3f0cee94	0.5505154
104	0x3ee3390d	0.44379464
105	0x3efea23d	0.49733153
106	0x3f095df0	0.5365896
107	0x3ef6200c	0.48071325
108	0x3f21ea11	0.6324778
109	0x3f26bcc7	0.651318
110	0x3ee91d6b	0.45530257
111	0x3f281be2	0.65667546
112	0x3f0792c8	0.52958345
113	0x3f178cb2	0.5919906
114	0x3f0037f0	0.50085354
115	0x3f3f36ae	0.7469281
116	0x3f24fe45	0.64450485
117	0x3ee5ea13	0.44905147
118	0x3efb616a	0.4909776
119	0x3f16d796	0.5892271
120	0x3f007e2a	0.5019251
121	0x3f032ace	0.5123719
122	0x3f080bea	0.5314318
123	0x3eee5084	0.46545804
124	0x3efb1a50	0.49043512
125	0x3eef230e	0.46706432
126	0x3ef6e0b4	0.4821831
127	0x3eed8b98	0.46395564
